trained_pnet_404.pth (torch, 31044 bytes, 13 tensors)

conv1.weight f4 [10, 3, 3, 3]
0.1229959 0.121269025 0.16366908 -0.14837068 0.1385574 -0.011694779 0.13177176 -0.03714026
0.052764058 -0.1533634 -0.14393207 -0.12614103 0.042582493 -0.06675484 0.022210652 -0.05330227
0.14584649 -0.1364417 -0.013995014 0.14383432 0.10726999 0.02141 -0.07456089 0.007105887
-0.09248363 -0.17026578 -0.06777546 -0.11784873 -0.18534063 -0.1806618 0.097207405 -0.2020197
-0.10033648 -0.015354713 0.06783504 0.17603394 -0.17225623 -0.051537972 0.015435973 0.109166205
-0.016169854 -0.01864922 -0.124073274 -0.041813113 0.11730285 0.023880903 -0.010882438 0.07252148
0.19480996 0.1452508 0.002075752 0.06528174 0.13751613 -0.029416472 0.14607489 -0.17359433
0.06321145 0.05655527 0.09724775 0.12797572 0.04762913 -0.13719709 0.1270394 0.03311459
-0.014140154 0.08450034 -0.14152132 -0.1041376 0.18427908 -0.15607212 -0.1411534 -0.14189039
-0.063611455 -0.0008094402 0.034635615 0.15313917 0.0020530233 -0.17529786 -0.23296247 0.17423634
-0.09677706 0.11345095 0.039962865 -0.08907241 -0.15812984 -0.22728503 0.09773549 -0.06548103
-0.15700448 -0.02793329 -0.016964486 0.009256349 0.006776114 -0.1704881 0.05638171 0.07509367
-0.012357815 -0.17602013 -0.09184288 0.16675021 0.15653476 -0.18453984 0.048767794 0.034879617
-0.025851896 -0.14579426 0.081103034 -0.18753308 0.007617483 0.103925146 0.15679893 0.026921246
-0.1033561 -0.14604281 0.16438828 -0.18892162 -0.109131426 -0.17895663 -0.111271106 -0.19752161
-0.15982874 0.20200554 0.06345225 0.009376576 -0.037108574 -0.06715528 0.15333208 0.009362024
-0.0044863396 0.013272164 -0.13304973 0.066044964 -0.13873515 0.09781838 0.10458946 0.12930065
-0.023665838 -0.1592453 -0.17280366 0.18020798 -0.19977851 0.09144701 0.07763705 -0.050237264
0.0161307 0.13363986 0.15399525 0.122999385 0.12192374 0.09540846 -0.09785121 -0.2318945
0.13264228 0.10632613 -0.14199843 -0.019681955 0.16213271 -0.025806988 -0.09072431 0.021444108
0.045998536 0.15625088 0.1271351 -0.06753136 0.100930765 0.11148249 0.14873983 0.10739721
-0.05370038 0.026058352 0.10389299 0.11387736 0.11637618 -0.014880794 0.17135279 -0.039642334
-0.02354408 -0.07955254 0.05570134 -0.07009533 7.064389e-05 0.06040782 -0.02228728 -0.03472958
0.15396014 -0.16700663 0.12255513 -0.04329854 -0.13975178 0.1411995 -0.021045893 -0.014487255
-0.009008983 -0.14233692 0.10033995 0.17018294 0.15732662 0.19681618 0.01381497 -0.013570195
0.119481 -0.14246741 0.1605292 -0.13187405 -0.11580689 -0.12860101 0.12233879 0.106009774
-0.14838907 -0.17408654 -0.13049176 0.15509859 -0.07924436 -0.06683727 0.16808622 -0.025793234
0.13427523 -0.17011544 -0.070874676 -0.13683884 0.17342246 -0.17202632 0.0017544542 0.12905146
0.102947205 0.046873044 0.02434488 -0.031267907 -0.078008376 0.16335334 0.053324014 -0.2001178
0.16888379 -0.101799004 -0.11063552 -0.054554448 0.096275106 -0.12377092 0.1726629 0.1432422
0.047765814 -0.04698407 -0.023936568 0.14383155 0.018353347 0.17142463 -0.23277082 0.10635994
-0.0074587413 -0.049850244 -0.16492926 -0.08128244 -0.07170195 0.051746316 -0.08349111 0.06490554
00000000: 46e5 fb3d e55b f83d de98 273e 7cee 17be
00000010: fee1 0d3e 759b 3fbc 2def 063e 6320 18bd
00000020: 201f 583d 4c0b 1dbe ee62 13be 1d2b 01be
00000030: fb6a 2e3d c3b6 88bd 1df3 b53c 7b53 5abd
00000040: c858 153e 5fb7 0bbe 584b 65bc 4e49 133e
00000050: 5eb0 db3d 0664 af3c 61b3 98bd 80d8 e83b
00000060: 0f68 bdbd 275a 2ebe dccd 8abd ad5a f1bd
00000070: efc9 3dbe 68ff 38be ad14 c73d 41de 4ebe
00000080: 367d cdbd 5692 7bbc 19ed 8a3d 3e42 343e
00000090: f063 30be 7b19 53bd 2ae7 7c3c 8892 df3d
000000a0: a476 84bc 40c6 98bc 211a febd 3a44 2bbd
000000b0: 7a3c f03d e2a1 c33c 414c 32bc 2486 943d
000000c0: 437c 473e a0bc 143e 5709 083b 6fb2 853d
000000d0: 07d1 0c3e d0fa f0bc a894 153e b6c2 31be
000000e0: 0175 813d 80a6 673d d429 c73d 110c 033e
000000f0: c316 433d 657d 0cbe 9e16 023e 2aa3 073d
00000100: 1bac 67bc 840e ad3d f7ea 10be 1846 d5bd
00000110: a8b3 3c3e 5fd1 1fbe 848a 10be b74b 11be
00000120: b946 82bd 9d30 54ba 13de 0d3d 84d0 1c3e
00000130: 048c 063b 4881 33be b78d 6ebe 036b 323e
00000140: 0d33 c6bd f958 e83d 1ab0 233d 986b b6bd
00000150: caec 21be 68bd 68be 8b29 c83d eb1a 86bd
00000160: c8c5 20be 5bd4 e4bc 1bf9 8abc f1a7 173c
00000170: 2a0a de3b 6f94 2ebe 82f0 663d b6ca 993d
00000180: 6f78 4abc 9f3e 34be 1f18 bcbd 91c0 2a3e
00000190: a64a 203e 03f8 3cbe bdc0 473d eedd 0e3d
000001a0: 5bc7 d3bc 174b 15be 5919 a63d ac08 40be
000001b0: 149c f93b b5d6 d43d e68f 203e f289 dc3c
000001c0: 5dac d3bd 3f8c 15be 6755 283e ab74 41be
000001d0: 4c80 dfbd 6840 37be 1be2 e3bd 1b43 4abe
000001e0: 25aa 23be 8ada 4e3e 41f3 813d 36a0 193c
000001f0: 29ff 17bd b588 89bd 1603 1d3e 2d63 193c
00000200: 2502 93bb 7e73 593c 303e 08be 9542 873d
00000210: 9610 0ebe 0155 c83d 0033 d63d 6467 043e
00000220: dcde c1bc 3311 23be 71f3 30be 7188 383e
00000230: bd92 4cbe 9248 bb3d 2c00 9f3d 97c5 4dbd
00000240: 8824 843c e3d8 083e eeb0 1d3e 1ae7 fb3d
00000250: 27b3 f93d 8365 c33d 3766 c8bd c075 6dbe
00000260: 61d3 073e 84c1 d93d 0968 11be 0d3c a1bc
00000270: 1e06 263e 2d69 d3bc abcd b9bd 8eab af3c
00000280: f668 3c3d 3b00 203e b42f 023e e24d 8abd
00000290: cab4 ce3d ef50 e43d 414f 183e 12f3 db3d
000002a0: eef4 5bbd 5378 d53c d9c5 d43d 8938 e93d
000002b0: a256 ee3d 93ce 73bc 1b77 2f3e 0060 22bd
000002c0: 84df c0bc 71ec a2bd 1727 643d 248e 8fbd
000002d0: a626 9438 316e 773d d093 b6bc 9b40 0ebd
000002e0: baa7 1d3e c903 2bbe 2ffe fa3d cf59 31bd
000002f0: 171b 0fbe 9a96 103e 7068 acbc f45b 6dbc
00000300: 6a9a 13bc c5c0 11be 087f cd3d 7044 2e3e
00000310: 3b1a 213e 2e8a 493e 2f58 623c 8655 5ebc
00000320: 74b2 f43d fae2 11be c461 243e fe09 07be
00000330: 2a2c edbd fcaf 03be c28c fa3d a71b d93d
00000340: 4ef3 17be be43 32be a29f 05be 2ad2 1e3e
00000350: de4a a2bd fbe1 88bd cb1e 2c3e 554c d3bc
00000360: 727f 093e be32 2ebe be26 91bd 7b1f 0cbe
00000370: a895 313e ab27 30be b7f5 e53a 1126 043e
00000380: fcd5 d23d f3fd 3f3d ea6e c73c c712 00bd
00000390: dbc2 9fbd 1946 273e 486a 5a3d aeeb 4cbe
000003a0: dfef 2c3e ff7b d0bd e094 e2bd 7c74 5fbd
000003b0: e22b c53d 9c7b fdbd 8bce 303e 15ae 123e
000003c0: 16a6 433d 5e72 40bd 9f16 c4bc 9448 133e
000003d0: c259 963c f089 2f3e 795b 6ebe 3dd3 d93d
000003e0: 7568 f4bb c52f 4cbd 37e3 28be 6877 a6bd
000003f0: 79d8 92bd f2f3 533d 63fd aabd 32ed 843d

conv1.bias f4 [10]
0.0778737 0.25338468 0.080850266 0.15354733 0.06504671 0.03102783 0.22357272 0.1832496
0.38951826 0.3211772
00000000: 3f7c 9f3d a3bb 813e d394 a53d 833b 1d3e
00000010: 3637 853d 132e fe3c 3ff0 643e c8a5 3b3e
00000020: f06e c73e 5771 a43e

prelu1.weight f4 [10]
0.1536645 0.20647417 0.098241776 0.18721087 0.20053853 0.28097418 0.27907932 0.14797541
0.24908885 0.16784796
00000000: 3a5a 1d3e f76d 533e fc32 c93d 35b4 3f3e
00000010: f959 4d3e d9db 8f3e 7ce3 8e3e de86 173e
00000020: 2611 7f3e 56e0 2b3e

conv2.weight f4 [16, 10, 3, 3]
-0.07723359 -0.022782573 0.054797184 0.07740642 0.022291109 0.053304188 -0.07284629 -0.0017607182
-0.13331832 0.03296818 0.07022875 -0.09640325 0.052660413 -0.018386928 -0.0055454355 -0.054697886
0.012093878 -0.055120103 -0.06776069 0.004322216 -0.08749211 -0.100678384 0.0020148277 -0.10649506
-0.033857077 -0.05206548 0.06478512 0.030530142 0.03667498 0.1122373 -0.024377692 0.030338345
0.041361287 -0.051904574 0.047590483 -0.089911975 0.064686626 -0.081288435 0.0013746298 0.028315851
-0.051199798 0.036221888 0.04870368 0.048221916 0.082024395 -0.09476259 -0.005737975 0.051384456
-0.09973046 0.03847962 -0.023238875 0.021517335 0.028241104 -0.09024566 0.08450444 0.041895345
0.066352054 -0.014730494 0.05754872 -0.007447643 -0.0902807 -0.030142685 0.05039523 -0.086090274
-0.085475326 0.055258702 -0.027534284 -0.058258098 -0.107779376 0.0121787805 -0.11480176 -0.031810086
0.08589762 -0.02940363 -0.076095425 0.02224059 -0.056276236 0.042421438 -0.108188234 -0.018622579
0.014011717 -0.04975574 0.10918758 -0.041846164 0.023964921 -0.056323633 -0.035514522 0.043079294
0.05034384 -0.0922946 0.005354975 0.066596895 0.027437506 0.03373245 -0.021151107 -0.0143952435
-0.08034917 0.014977603 -0.00052210846 0.043657184 -0.02332791 -0.042708386 -0.077242754 -0.025089096
-0.0051712883 -0.015315217 0.012798478 0.06308842 0.047037918 0.09665074 0.10160444 0.024913032
0.09779914 0.09976869 -0.066920295 0.024544675 0.0846621 0.04213964 0.10952761 -0.014749399
-0.115735225 0.1523613 0.05191476 0.025259385 0.040483028 -0.067387044 -0.10058439 0.04157947
-0.037138805 0.023260446 0.09388734 -0.12236921 -0.11006209 0.121878766 -0.108760044 -0.06808672
-0.064681634 -0.016814351 -0.02920743 0.00495903 -0.080476746 0.030610327 -0.0768885 -0.08928983
-0.048864834 0.07026118 -0.00768621 -0.09699649 0.038798932 -0.10932257 0.082643636 0.07434678
-0.02304621 -0.0599471 -0.09153117 -0.08715489 0.025140647 0.010926486 -0.018418856 0.060615502
0.045435637 0.0323765 -0.09266049 -0.06972719 0.005123555 0.06502588 -0.0009308015 0.0065069105
0.076064706 0.07433853 -0.08865175 0.010559027 0.07545913 -0.113526635 -0.022292962 -0.07942997
0.012706512 0.04731398 -0.012592165 0.006817055 -0.071432576 -0.012154751 -0.068567134 -0.037641168
0.012529699 -0.09476724 0.032797396 -0.06542896 0.086034946 -0.022061292 -0.0169492 -0.042998884
-0.052918207 -0.058986235 -0.07032377 -0.053473346 0.07032307 -0.058436733 -0.045617897 -0.0012757079
-0.08432229 -0.066358626 -0.013111686 0.024404163 -0.0841541 -0.06482545 -0.08870748 0.0069908206
0.064643994 0.0047876216 -0.024867684 -0.09036243 -0.09359924 0.0026291797 -0.012519333 -0.091528736
0.09196179 -0.040422287 -0.14309143 0.00071090506 -0.09414242 0.11765851 -0.030779723 0.035586245
0.06518719 0.013527266 -0.06137801 -0.08506124 0.066498086 0.03726521 -0.13280873 -0.06254057
0.03928306 0.063190386 -0.083497204 -0.045167837 0.11846346 0.07776979 0.019998625 -0.09047233
-0.05995683 -0.032589033 -0.0443627 -0.0002905245 0.07219884 0.08307495 -0.012203154 -0.11079065
-0.10042948 0.01150153 0.028777651 0.052310012 -0.02196055 0.11054841 -0.0185743 0.06941167
00000000: a52c 9ebd 85a2 babc 0373 603d 4287 9e3d
00000010: d89b b63c 7e55 5a3d 7030 95bd e6c7 e6ba
00000020: 9984 08be a409 073d 17d4 8f3d 116f c5bd
00000030: 72b2 573d 2fa0 96bc 7cb6 b5bb e40a 60bd
00000040: 6725 463c 9ec5 61bd 1ec6 8abd 60a1 8d3b
00000050: 102f b3bd 7830 cebd 330b 043b 151a dabd
00000060: b8ad 0abd 9d42 55bd 10ae 843d 591a fa3c
00000070: 8138 163d abdc e53d bab3 c7bc 1f88 f83c
00000080: 746a 293d e499 54bd 3dee 423d c523 b8bd
00000090: 6c7a 843d 8d7a a6bd ec2c b43a a5f6 e73c
000000a0: e1b6 51bd 675d 143d 837d 473d 5884 453d
000000b0: 68fc a73d e412 c2bd 9f05 bcbb 8278 523d
000000c0: 7c3f ccbd ce9c 1d3d 745f bebc 1f45 b03c
000000d0: e359 e73c b7d2 b8bd aa10 ad3d 749a 2b3d
000000e0: 96e3 873d 2b58 71bc 35b8 6b3d 5c0b f4bb
000000f0: 16e5 b8bd cbed f6bc 3b6b 4e3d 1950 b0bd
00000100: b00d afbd f356 623d 948f e1bc 0ba0 6ebd
00000110: 6fbb dcbd 8289 473c 2f1d ebbd 4b4b 02bd
00000120: 17eb af3d e2df f0bc ebd7 9bbd e631 b63c
00000130: e981 66bd 1ac2 2d3d cb91 ddbd 618e 98bc
00000140: 6791 653c adcc 4bbd bd9d df3d e266 2bbd
00000150: 1552 c43c 9cb3 66bd ad77 11bd ea73 303d
00000160: 5835 4e3d f404 bdbd c978 af3b f463 883d
00000170: 9fc4 e03c 0a2b 0a3d 1645 adbc 07da 6bbc
00000180: 1b8e a4bd 9f64 753c 1bde 08ba e0d1 323d
00000190: 2c1a bfbc fdee 2ebd 7331 9ebd a687 cdbc
000001a0: e973 a9bb adec 7abc b5b0 513c 8034 813d
000001b0: d5aa 403d d3f0 c53d fd15 d03d 6a16 cc3c
000001c0: ea4a c83d 8753 cc3d 820d 89bd ea11 c93c
000001d0: 5363 ad3d 9d9a 2c3d 0350 e03d 77a7 71bc
000001e0: 9706 edbd 9a04 1c3e 92a4 543d c5ec ce3c
000001f0: 88d1 253d 3802 8abd 30ff cdbd 3c4f 2a3d
00000200: dc1e 18bd b18c be3c 0148 c03d b59c fabd
00000210: 3c68 e1bd 939b f93d 96bd debd 0d71 8bbd
00000220: ce77 84bd 40be 89bc 6c44 efbc 5c7f a23b
00000230: fed0 a4bd 82c2 fa3c b877 9dbd 96dd b6bd
00000240: 7e26 48bd 18e5 8f3d 9adc fbbb 19a6 c6bd
00000250: a1eb 1e3d 83e4 dfbd 1141 a93d 2043 983d
00000260: 68cb bcbc 178b 75bd b274 bbbd 437e b2bd
00000270: c2f3 cd3c 0105 333c 24e3 96bc f647 783d
00000280: b81a 3a3d 399d 043d c8c4 bdbd 21cd 8ebd
00000290: 7fe3 a73b 4a2c 853d 0801 74ba ec37 d53b
000002a0: d0c7 9b3d cd3e 983d 0c8f b5bd c5ff 2c3c
000002b0: 518a 9a3d a780 e8bd bb9f b6bc 2eac a2bd
000002c0: f92e 503c 4ecc 413d 5e4f 4ebc 9a61 df3b
000002d0: 3e4b 92bd b924 47bc ed6c 8cbd a02d 1abd
000002e0: 5e49 4d3c 5415 c2bd 9056 063d 9eff 85bd
000002f0: 1733 b03d e2b9 b4bc 0cd9 8abc 991f 30bd
00000300: c3c0 58bd 8d9b 71bd e905 90bd de06 5bbd
00000310: 8b05 903d 5b5b 6fbd d5d9 3abd a735 a7ba
00000320: 2ab1 acbd 08e7 87bd 66d2 56bc 3deb c73c
00000330: fc58 acbd 35c3 84bd 44ac b5bd 4113 e53b
00000340: 1264 843d 7be1 9c3b 50b7 cbbc f00f b9bd
00000350: f5b0 bfbd 514e 2c3b e31d 4dbc 6b73 bbbd
00000360: 7756 bc3d d791 25bd 8f86 12be 085c 3a3a
00000370: becd c0bd f2f6 f03d c225 fcbc e2c2 113d
00000380: dd80 853d 77a1 5d3c 8267 7bbd 9634 aebd
00000390: 2630 883d 68a3 183d 03ff 07be 4515 80bd
000003a0: 46e7 203d f669 813d 9500 abbd e901 39bd
000003b0: f89c f23d c545 9f3d 28d4 a33c 8f49 b9bd
000003c0: 4b95 75bd 147c 05bd aab5 35bd 8a51 98b9
000003d0: fcdc 933d 3323 aa3d bdef 47bc 35e6 e2bd
000003e0: f9ad cdbd ea70 3c3c 1cbf eb3c 0643 563d
000003f0: 9de6 b3bc 3467 e23d 2129 98bc b527 8e3d

conv2.bias f4 [16]
0.025726115 -0.04522792 -0.24239638 -0.14361791 -0.24697801 0.044855252 0.054765668 -0.0033568712
-0.0134893 0.22998169 0.16557717 0.21228078 -0.14822148 0.31970787 -0.029501079 -0.03767241
00000000: 93bf d23c e940 39bd c236 78be 9310 13be
00000010: cee7 7cbe 24ba 373d f751 603d f4fe 5bbb
00000020: 3a02 5dbc 5280 6b3e 108d 293e 2260 593e
00000030: 5fc7 17be c0b0 a33e 3fac f1bc 634e 1abd

prelu2.weight f4 [16]
0.07423218 0.15072304 0.20691854 0.17440253 0.22725336 0.15696543 0.16742814 0.18135764
0.19850782 0.10985464 0.15324411 0.25 0.22184125 0.25 0.18636744 0.21665353
00000000: 0b07 983d 2457 1a3e 74e2 533e 9496 323e
00000010: 1bb5 683e 8cbb 203e 4872 2b3e d1b5 393e
00000020: a245 4b3e 78fb e03d 06ec 1c3e 0000 803e
00000030: 5a2a 633e 0000 803e 1bd7 3e3e 6cda 5d3e

conv3.weight f4 [32, 16, 3, 3]
0.0055282805 -0.05534274 0.014042964 -0.005737464 -0.019227983 0.04484516 0.014282591 -0.00891435
0.040547643 -0.0016564105 -0.06727836 0.004980188 0.082295805 -0.09345091 0.07438891 0.08177077
-0.015196791 0.0042842026 0.072091386 -0.10052842 -0.06067907 0.06228327 0.035670336 -0.030620715
0.044296093 0.07975423 0.04947895 -0.04942595 0.0067509715 0.05181075 -0.091845214 -0.0149721615
0.05545747 -0.025429653 0.0673961 -0.033078775 0.01672086 0.0071663978 -0.007858302 0.06237607
-0.015159559 -0.0107188355 -0.014037587 0.009811513 -0.07912396 0.020779494 -0.044226803 0.082159236
-0.03578899 -0.089883864 0.022517184 -0.06524119 -0.0057390914 0.024283195 0.062287055 -0.03668083
-0.008963427 0.012850487 -0.09951889 0.055371925 0.027396789 0.029868172 0.07549864 0.032739133
-0.009166536 -0.08154683 -0.021213884 0.06963325 -0.016430942 -0.0035302052 0.0778833 0.06416217
0.024782853 0.060489975 0.057866342 -0.0018454588 0.004043705 -0.020935012 -0.0064443327 -0.0042581214
0.007966027 0.03131494 -0.03652046 -0.04624289 -0.043758206 -0.050511252 0.04031782 0.04153799
-0.043285754 -0.05328589 0.026555046 -0.009593425 0.005538117 -0.039589375 0.053779766 -0.008200075
0.0613206 0.01574798 -0.057134528 0.017400853 0.017857501 0.002131781 -0.06925352 0.03251016
0.0268346 0.017891923 -0.047419187 -0.029745346 -0.025307402 0.052819353 0.020426784 -0.08631912
-0.06832234 -0.074068405 -0.056863915 -0.008054636 -0.05771289 0.049367685 -0.062572494 -0.052309975
0.07105364 0.030870287 -0.039007872 -0.03287928 0.07613433 -0.08728552 0.029573573 -0.0037446392
0.033445265 0.04248644 -0.008101904 -0.095960304 -0.053802174 -0.027642954 0.0011087619 0.030117657
0.06508834 0.05374173 -0.08164773 0.0559049 0.02769817 0.03931732 -0.046950962 0.032446343
-0.023615172 -0.028329048 -0.05880492 -0.05813976 -0.000924882 -0.030750548 -0.02964614 -0.041286554
0.0008792965 -0.043662604 -0.057548873 0.04355427 -0.015907997 0.032071996 0.073416695 0.022133015
0.00843833 0.07587428 0.010127069 -0.009982523 0.09025223 0.01242833 -0.02488707 0.06578049
0.038428117 -0.011577354 -0.059261844 -0.029944958 0.07143881 0.085020535 0.101843685 -0.07249671
0.042574435 -0.07050852 -0.010929027 0.028559089 -0.004128436 0.03454309 -0.045068502 0.044397157
0.009400911 -0.02382912 -0.05347986 0.03792913 -0.067398176 0.0019032919 -0.013150944 -0.008265164
-0.072066896 0.076976955 -0.05231352 0.0017292809 0.007639396 0.026108554 0.061074033 0.059480943
0.03426391 -0.027430438 0.0040360624 0.021506324 0.006172518 -0.018465247 -0.03504227 -0.012363726
-0.067316785 -0.054844223 -0.018039448 -0.05415372 -0.036024936 0.034735736 0.0004984572 0.007518167
0.1007791 -0.0577271 -0.046973944 -0.012075471 0.0029063066 0.016846111 -0.036203753 -0.025936352
0.068916075 -0.053250827 -0.026367506 -0.035304725 0.048845157 -0.0035051086 0.024858458 -0.021727568
-0.0688627 -0.024394225 0.06077844 -0.08296538 -0.07513801 0.07691081 -0.0058771987 0.016080163
0.037552275 -0.051782377 0.040900473 -0.056323647 0.015505568 0.047685225 0.01997624 -0.041094538
0.042787824 0.014070874 0.020141477 0.0042180675 -0.042685907 -0.006932163 0.053052593 0.004689055
00000000: 9426 b53b 12af 62bd 7614 663c 5601 bcbb
00000010: 0184 9dbc 8faf 373d 8701 6a3c 7e0d 12bc
00000020: 4915 263d ea1b d9ba 3dc9 89bd d830 a33b
00000030: b48a a83d 3163 bfbd 3659 983d 6f77 a73d
00000040: f6fb 78bc 7f62 8c3b a6a4 933d d8e1 cdbd
00000050: 9e8a 78bd be1c 7f3d 0f1b 123d 4bd8 fabc
00000060: d26f 353d 3056 a33d 71aa 4a3d dd72 4abd
00000070: 4137 dd3b 8237 543d 5819 bcbd cc4d 75bc
00000080: 5f27 633d d951 d0bc f706 8a3d 9c7d 07bd
00000090: 2ffa 883c 1ad4 ea3b 1cc0 00bc 0d7e 7f3d
000000a0: cd5f 78bc 0e9e 2fbc e8fd 65bc 78c0 203c
000000b0: be0b a2bd c239 aa3c 2a27 35bd 1a43 a83d
000000c0: 7a97 12bd 0815 b8bd f575 b83c 2c9d 85bd
000000d0: fd0e bcbb 8ded c63c b620 7f3d a33e 16bd
000000e0: 56db 12bc d98a 523c 8fd0 cbbd accd 623d
000000f0: 3b6f e03c 19ae f43c 089f 9a3d 7819 063d
00000100: 3d2f 16bc 0602 a7bd bdc8 adbc e19b 8e3d
00000110: 2f9a 86bc 045b 67bb 4881 9f3d 7567 833d
00000120: 6905 cb3c 56c4 773d 4205 6d3d 52e3 f1ba
00000130: 0e81 843b e77f abbc fb2a d3bb b687 8bbb
00000140: f083 023c 1844 003d 7a96 15bd 2f69 3dbd
00000150: ce3b 33bd e3e4 4ebd 4c24 253d bd23 2a3d
00000160: 674c 31bd 4e42 5abd f889 d93c be2d 1dbc
00000170: 1879 b53b 7828 22bd 2c48 5c3d 9b59 06bc
00000180: 4f2b 7b3d e801 813c e505 6abd 3c8c 8e3c
00000190: e549 923c 5ab5 0b3b cad4 8dbd 6029 053d
000001a0: 3cd4 db3c 1592 923c 9f3a 42bd 83ac f3bc
000001b0: 7851 cfbc 1b59 583d 1256 a73c 14c8 b0bd
000001c0: 95ec 8bbd 2db1 97bd 23ea 68bd 98f7 03bc
000001d0: 5a64 6cbd c535 4a3d 0226 80bd fc42 56bd
000001e0: 9284 913d afe3 fc3c b8c6 1fbd 6dac 06bd
000001f0: 51ec 9b3d c0c2 b2bd 4744 f23c 9f68 75bb
00000200: e7fd 083d 4306 2e3d d9bd 04bc d686 c4bd
00000210: ab5f 5cbd 7a73 e2bc e053 913a 4eb9 f63c
00000220: 094d 853d 4a20 5c3d ed36 a7bd 89fc 643d
00000230: 46e7 e23c 330b 213d a74f 40bd 75e6 043d
00000240: 9b74 c1bc 5212 e8bc 6edd 70bd f523 6ebd
00000250: c873 72ba 93e8 fbbc 76dc f2bc 171c 29bd
00000260: 9780 663a 8fd7 32bd 5eb8 6bbd f665 323d
00000270: 7d51 82bc ed5d 033d 7e5b 963d 4c50 b53c
00000280: ec40 0a3c f963 9b3d 02ec 253c bc8d 23bc
00000290: 29d6 b83d 32a0 4b3c f8df cbbc ecb7 863d
000002a0: cd66 1d3d f1ae 3dbc 8cbc 72bd 214f f5bc
000002b0: 834e 923d 3f1f ae3d 6c93 d03d 2879 94bd
000002c0: 8862 2e3d c566 90bd a90f 33bc c0f4 e93c
000002d0: d547 87bb 0e7d 0d3d c099 38bd cbd9 353d
000002e0: 4706 1a3c 4935 c3bc b30d 5bbd 935b 1b3d
000002f0: 0e08 8abd e177 f93a 0f77 57bc 9c6a 07bc
00000300: cf97 93bd 18a6 9d3d b446 56bd 0aa9 e23a
00000310: e653 fa3b 9be1 d53c c428 7a3d 4aa2 733d
00000320: 5058 0c3d ccb5 e0bc f240 843b 082e b03c
00000330: d542 ca3b 6e44 97bc 7c88 0fbd 3a91 4abc
00000340: 62dd 89bd 56a4 60bd 77c7 93bc 4bd0 5dbd
00000350: e28e 13bd 0f47 0e3d e5aa 023a f55a f63b
00000360: 4665 ce3d 4073 6cbd c067 40bd 32d8 45bc
00000370: bc77 3e3b db00 8a3c 634a 14bd 7978 d4bc
00000380: df23 8d3d 8a1d 5abd ab00 d8bc b09b 10bd
00000390: dc11 483d f7b5 65bb f7a3 cb3c 03fe b1bc
000003a0: e307 8dbd 66d6 c7bc d0f2 783d c1e9 a9bd
000003b0: f5e1 99bd 6a83 9d3d 8495 c0bb 8cba 833c
000003c0: 6ad0 193d c219 54bd 4187 273d a0b3 66bd
000003d0: 110b 7e3c 9551 433d 36a5 a33c bf52 28bd
000003e0: 4942 2f3d 8689 663c bdff a43c b737 8a3b
000003f0: 6bd7 2ebd 3327 e3bb ad4d 593d a5a6 993b

conv3.bias f4 [32]
0.19820155 0.012342144 -0.025077578 0.20233698 0.09303159 0.19844364 0.26338974 0.14509788
0.1708924 0.10016826 0.010967574 0.07330174 -0.1842339 0.14160594 0.118463576 -0.1732655
0.12417502 0.09916234 0.28230998 0.03240495 -0.31841382 0.16730842 0.17474782 -0.0794548
0.026622217 0.20913443 -0.21719083 0.09656519 0.25756884 -0.19335414 -0.017089942 0.23478496
00000000: 59f5 4a3e b436 4a3c 7e6f cdbc 6d31 4f3e
00000010: 5987 be3d cf34 4b3e 05db 863e 8a94 143e
00000020: 6bfe 2e3e 0425 cd3d 57b1 333c 391f 963d
00000030: d0a7 3cbe 2601 113e 089d f23d 836c 31be
00000040: 794f fe3d a015 cb3d ef8a 903e 0ebb 043d
00000050: 2307 a3be e652 2b3e 18f1 323e 33b9 a2bd
00000060: d616 da3c 5627 563e 4667 5ebe f8c3 c53d
00000070: 10e0 833e a1fe 45be 3500 8cbc 786b 703e

prelu3.weight f4 [32]
0.17290859 0.22539005 0.1468004 0.2560053 0.15159473 0.24444112 0.24326567 0.20527874
0.2294927 0.24785104 0.12809023 0.10098821 0.27642986 0.25 0.13273504 0.2346128
0.23845316 0.17457664 0.25 0.19642192 0.23967749 0.24254966 0.22057192 0.16395889
0.17405212 0.24324787 0.25029105 0.117873 0.25 0.25794303 0.12750389 0.25
00000000: f30e 313e a6cc 663e d852 163e 2013 833e
00000010: a63b 1b3e c64e 7a3e a31a 793e 9734 523e
00000020: 2200 6b3e aacc 7d3e 162a 033e e8d2 ce3d
00000030: 3788 8d3e 0000 803e b2eb 073e 563e 703e
00000040: 112d 743e 38c4 323e 0000 803e d422 493e
00000050: 046e 753e f05e 783e 9bdd 613e d7e4 273e
00000060: b83a 323e f815 793e 2626 803e 6667 f13d
00000070: 0000 803e 1c11 843e 6190 023e 0000 803e

conv4_1.weight f4 [2, 32, 1, 1]
-0.18729988 0.00087350566 -0.07766478 0.13700065 0.07546445 0.10051275 -0.1201674 -0.026995841
-0.012240432 0.008608973 -0.024522012 -0.11992517 -0.12041708 -0.056187823 0.030446721 0.0864734
-0.07340663 -0.073854014 -0.09464678 0.07475606 -0.06530519 -0.010516627 0.067237936 -0.14872226
-0.15226106 0.109812684 0.0115706725 -0.040346395 -0.028105993 0.1394144 0.12594636 0.05335201
-0.057678252 0.033672582 -0.06441371 0.041027382 0.06561036 -0.001091267 -0.029828843 -0.03301097
0.0619527 -0.016109362 -0.12153621 -0.040370923 0.09091246 -0.04443638 0.18649934 0.062819324
-0.015743919 -0.09590633 0.020066675 -0.045082737 -0.04398337 -0.034244116 -0.044331722 0.07274416
-0.020828635 -0.030893046 -0.14418527 0.08623405 0.06705998 -0.059943914 -0.05676193 -0.026264075
00000000: 8acb 3fbe f9fb 643a b60e 9fbd e649 0c3e
00000010: 1b8d 9a3d a1d9 cd3d 531a f6bd 6226 ddbc
00000020: 188c 48bc a60c 0d3c 63e2 c8bc 549b f5bd
00000030: 3b9d f6bd 3425 66bd 676b f93c f718 b13d
00000040: 3756 96bd c640 97bd 2cd6 c1bd b519 993d
00000050: babe 85bd ee4d 2cbc 0bb4 893d a64a 18be
00000060: 53ea 1bbe 79e5 e03d eb92 3d3c 4342 25bd
00000070: 8a3e e6bc a6c2 0e3e 15f8 003e a387 5a3d
00000080: 0840 6cbd 43ec 093d 56eb 83bd 540c 283d
00000090: b95e 863d d808 8fba 9e5b f4bc 8336 07bd
000000a0: 1dc2 7d3d c8f7 83bc fae7 f8bd fb5b 25bd
000000b0: 5030 ba3d ec02 36bd aff9 3e3e 6ba7 803d
000000c0: 64f9 80bc 8a6a c4bd de62 a43c ada8 38bd
000000d0: e827 34bd 8f43 0cbd 2e95 35bd e4fa 943d
000000e0: d0a0 aabc 6a13 fdbc 4ea5 13be 7a9b b03d
000000f0: be56 893d c087 75bd 337f 68bd c227 d7bc

conv4_1.bias f4 [2]
-0.13979779 0.0416234
00000000: 2727 0fbe 4c7d 2a3d

conv4_2.weight f4 [4, 32, 1, 1]
0.09279764 0.019668788 0.03139697 -0.057467353 0.016464585 -0.03186136 0.10945309 0.028107475
0.0011377659 -0.021977304 -0.086447455 -0.09200639 -0.09791551 0.046616588 -0.07308903 -0.12582731
0.094536774 0.055638872 0.063995145 -0.04488218 -0.07779172 0.052864194 -0.026257943 -0.09404865
0.04455091 0.06382254 -0.0680046 -0.029679064 0.10897037 -0.18491164 -0.036898427 0.034435138
0.10126749 -0.049306154 -0.0020114616 0.08278013 -0.03856693 -0.014060631 0.08892367 -0.04377775
0.08101305 0.05411517 -0.03560741 -0.032491624 -0.0063216602 0.0043433355 -0.07883102 -0.0023575453
-0.1243802 -0.037940867 0.117319174 0.04546836 0.030403696 -0.05206699 -0.008945143 -0.019607255
-0.02784717 -0.023809642 -0.07152734 -0.0071637942 0.039529998 -0.056594305 0.05290919 0.06703058
0.02730073 -0.012329086 -0.09726706 0.03949871 -0.0045444826 0.13757087 -0.012613654 0.045947786
0.080288224 0.0036282262 0.013252592 0.06292173 -0.119564325 0.07663227 0.05919497 -0.044955816
-0.048084375 -0.04847545 0.12415473 -0.11192864 -0.07363636 0.17891592 0.06642811 -0.040022288
-0.029077467 0.0013035691 -0.17173438 -0.054992434 -0.06846304 -0.1344428 0.022365244 0.10752659
0.017707793 0.010522416 0.12706272 0.067327365 0.025125533 0.08762834 0.16131532 -0.04436145
-0.13237667 0.0868365 0.05959725 0.068886384 -0.10667139 -0.045120202 0.1093423 -0.12774831
0.08055407 0.06105625 0.086186595 0.10638727 -0.10357134 -0.08147965 -0.009718489 0.12707074
0.007885587 0.10281138 -0.034366317 0.11996515 0.12266788 -0.16774021 -0.04364761 -0.014220994
00000000: b00c be3d 7020 a13c 1c9a 003d e362 6bbd
00000010: bde0 863c 0f81 02bd f128 e03d a641 e63c
00000020: 1721 953a bf09 b4bc 5d0b b1bd d96d bcbd
00000030: ed87 c8bd 09f1 3e3d b4af 95bd e0d8 00be
00000040: 7f9c c13d 96e5 633d e30f 833d 60d6 37bd
00000050: 4451 9fbd 2088 583d e61a d7bc 949c c0bd
00000060: 047b 363d 64b5 823d ff45 8bbd 8221 f3bc
00000070: db2b df3d 7a59 3dbe ce22 17bd dc0b 0d3d
00000080: 5465 cf3d 40f5 49bd bad2 03bb a188 a93d
00000090: 5bf8 1dbd 905e 66bc 9d1d b63d 4c50 33bd
000000a0: 2cea a53d dea7 5d3d 13d9 11bd f015 05bd
000000b0: ee25 cfbb 8a52 8e3b 2872 a1bd 0c81 1abb
000000c0: 0cbb febd e267 1bbd 0945 f03d 083d 3a3d
000000d0: 2c11 f93c 3244 55bd a68e 12bc 659f a0bc
000000e0: c01f e4bc 700c c3bc ed7c 92bd 43be eabb
000000f0: 35ea 213d 6ecf 67bd 4fb7 583d 5447 893d
00000100: c8a5 df3c efff 49bc f433 c7bd 66c9 213d
00000110: e2e9 94bb 61df 0c3e 80a9 4ebc bf33 3c3d
00000120: 276e a43d 89c7 6d3b 6621 593c 1cdd 803d
00000130: 24de f4bd 61f1 9c3d 6d76 723d 9723 38bd
00000140: 1ff4 44bd 328e 46bd d644 fe3d d83a e5bd
00000150: a9ce 96bd bc35 373e 760b 883d 69ee 23bd
00000160: de33 eebc 85dc aa3a 23db 2fbe bf3f 61bd
00000170: 5a36 8cbd 60ab 09be 5137 b73c e736 dc3d
00000180: ef0f 913c 3666 2c3c bb1c 023e eee2 893d
00000190: 10d4 cd3c 7d76 b33d d82f 253e 5ab4 35bd
000001a0: c08d 07be 56d7 b13d 3f1c 743d 4e14 8d3d
000001b0: 8876 dabd f6cf 38bd dbee df3d 74d0 02be
000001c0: 88f9 a43d 1e16 7a3d 9982 b03d 92e1 d93d
000001d0: 361d d4bd cede a6bd 4c3a 1fbc d51e 023e
000001e0: 8d32 013c c68e d23d b2c3 0cbd 4ab0 f53d
000001f0: 4c39 fb3d 17c4 2bbe d6c7 32bd 2cff 68bc

conv4_2.bias f4 [4]
0.023059985 0.04270333 0.26374403 0.08687257
00000000: 4be8 bc3c b0e9 2e3d 7509 873e 3fea b13d
